Layer name, IFMAP Height, IFMAP Width, Filter Height, Filter Width, Channels, Num Filter, Strides,
igd_QxKTxV,2048,1,1,1,64,2048,1,
wgd_QxKTxV,2048,1,1,1,2048,64,1,
igd_QxKT,2048,1,1,1,2048,64,1,
wgd_QxKT,64,1,1,1,2048,2048,1,
igd_get_V,2048,1,1,1,64,8192,1,
wgd_get_V,8192,1,1,1,2048,64,1,
igd_get_K,2048,1,1,1,64,8192,1,
wgd_get_K,8192,1,1,1,2048,64,1,
igd_get_Q,2048,1,1,1,64,8192,1,
wgd_get_Q,8192,1,1,1,2048,64,1,