Layer name, IFMAP Height, IFMAP Width, Filter Height, Filter Width, Channels, Num Filter, Strides,
MH_get_Q_head0,2048,1,1,1,8192,128,1,
MH_get_K_head0,2048,1,1,1,8192,128,1,
MH_get_V_head0,2048,1,1,1,8192,128,1,
MH_QxKT_head0,2048,1,1,1,128,2048,1,
MH_QxKTxV_head0,2048,1,1,1,2048,128,1,
MH_get_Q_head1,2048,1,1,1,8192,128,1,
MH_get_K_head1,2048,1,1,1,8192,128,1,
MH_get_V_head1,2048,1,1,1,8192,128,1,
MH_QxKT_head1,2048,1,1,1,128,2048,1,
MH_QxKTxV_head1,2048,1,1,1,2048,128,1,
MH_get_Q_head2,2048,1,1,1,8192,128,1,
MH_get_K_head2,2048,1,1,1,8192,128,1,
MH_get_V_head2,2048,1,1,1,8192,128,1,
MH_QxKT_head2,2048,1,1,1,128,2048,1,
MH_QxKTxV_head2,2048,1,1,1,2048,128,1,
MH_get_Q_head3,2048,1,1,1,8192,128,1,
MH_get_K_head3,2048,1,1,1,8192,128,1,
MH_get_V_head3,2048,1,1,1,8192,128,1,
MH_QxKT_head3,2048,1,1,1,128,2048,1,
MH_QxKTxV_head3,2048,1,1,1,2048,128,1,
MH_get_Q_head4,2048,1,1,1,8192,128,1,
MH_get_K_head4,2048,1,1,1,8192,128,1,
MH_get_V_head4,2048,1,1,1,8192,128,1,
MH_QxKT_head4,2048,1,1,1,128,2048,1,
MH_QxKTxV_head4,2048,1,1,1,2048,128,1,
MH_get_Q_head5,2048,1,1,1,8192,128,1,
MH_get_K_head5,2048,1,1,1,8192,128,1,
MH_get_V_head5,2048,1,1,1,8192,128,1,
MH_QxKT_head5,2048,1,1,1,128,2048,1,
MH_QxKTxV_head5,2048,1,1,1,2048,128,1,
MH_get_Q_head6,2048,1,1,1,8192,128,1,
MH_get_K_head6,2048,1,1,1,8192,128,1,
MH_get_V_head6,2048,1,1,1,8192,128,1,
MH_QxKT_head6,2048,1,1,1,128,2048,1,
MH_QxKTxV_head6,2048,1,1,1,2048,128,1,
MH_get_Q_head7,2048,1,1,1,8192,128,1,
MH_get_K_head7,2048,1,1,1,8192,128,1,
MH_get_V_head7,2048,1,1,1,8192,128,1,
MH_QxKT_head7,2048,1,1,1,128,2048,1,
MH_QxKTxV_head7,2048,1,1,1,2048,128,1,
MH_get_Q_head8,2048,1,1,1,8192,128,1,
MH_get_K_head8,2048,1,1,1,8192,128,1,
MH_get_V_head8,2048,1,1,1,8192,128,1,
MH_QxKT_head8,2048,1,1,1,128,2048,1,
MH_QxKTxV_head8,2048,1,1,1,2048,128,1,
MH_get_Q_head9,2048,1,1,1,8192,128,1,
MH_get_K_head9,2048,1,1,1,8192,128,1,
MH_get_V_head9,2048,1,1,1,8192,128,1,
MH_QxKT_head9,2048,1,1,1,128,2048,1,
MH_QxKTxV_head9,2048,1,1,1,2048,128,1,
MH_get_Q_head10,2048,1,1,1,8192,128,1,
MH_get_K_head10,2048,1,1,1,8192,128,1,
MH_get_V_head10,2048,1,1,1,8192,128,1,
MH_QxKT_head10,2048,1,1,1,128,2048,1,
MH_QxKTxV_head10,2048,1,1,1,2048,128,1,
MH_get_Q_head11,2048,1,1,1,8192,128,1,
MH_get_K_head11,2048,1,1,1,8192,128,1,
MH_get_V_head11,2048,1,1,1,8192,128,1,
MH_QxKT_head11,2048,1,1,1,128,2048,1,
MH_QxKTxV_head11,2048,1,1,1,2048,128,1,
MH_get_Q_head12,2048,1,1,1,8192,128,1,
MH_get_K_head12,2048,1,1,1,8192,128,1,
MH_get_V_head12,2048,1,1,1,8192,128,1,
MH_QxKT_head12,2048,1,1,1,128,2048,1,
MH_QxKTxV_head12,2048,1,1,1,2048,128,1,
MH_get_Q_head13,2048,1,1,1,8192,128,1,
MH_get_K_head13,2048,1,1,1,8192,128,1,
MH_get_V_head13,2048,1,1,1,8192,128,1,
MH_QxKT_head13,2048,1,1,1,128,2048,1,
MH_QxKTxV_head13,2048,1,1,1,2048,128,1,
MH_get_Q_head14,2048,1,1,1,8192,128,1,
MH_get_K_head14,2048,1,1,1,8192,128,1,
MH_get_V_head14,2048,1,1,1,8192,128,1,
MH_QxKT_head14,2048,1,1,1,128,2048,1,
MH_QxKTxV_head14,2048,1,1,1,2048,128,1,
MH_get_Q_head15,2048,1,1,1,8192,128,1,
MH_get_K_head15,2048,1,1,1,8192,128,1,
MH_get_V_head15,2048,1,1,1,8192,128,1,
MH_QxKT_head15,2048,1,1,1,128,2048,1,
MH_QxKTxV_head15,2048,1,1,1,2048,128,1,
MH_get_Q_head16,2048,1,1,1,8192,128,1,
MH_get_K_head16,2048,1,1,1,8192,128,1,
MH_get_V_head16,2048,1,1,1,8192,128,1,
MH_QxKT_head16,2048,1,1,1,128,2048,1,
MH_QxKTxV_head16,2048,1,1,1,2048,128,1,
MH_get_Q_head17,2048,1,1,1,8192,128,1,
MH_get_K_head17,2048,1,1,1,8192,128,1,
MH_get_V_head17,2048,1,1,1,8192,128,1,
MH_QxKT_head17,2048,1,1,1,128,2048,1,
MH_QxKTxV_head17,2048,1,1,1,2048,128,1,
MH_get_Q_head18,2048,1,1,1,8192,128,1,
MH_get_K_head18,2048,1,1,1,8192,128,1,
MH_get_V_head18,2048,1,1,1,8192,128,1,
MH_QxKT_head18,2048,1,1,1,128,2048,1,
MH_QxKTxV_head18,2048,1,1,1,2048,128,1,
MH_get_Q_head19,2048,1,1,1,8192,128,1,
MH_get_K_head19,2048,1,1,1,8192,128,1,
MH_get_V_head19,2048,1,1,1,8192,128,1,
MH_QxKT_head19,2048,1,1,1,128,2048,1,
MH_QxKTxV_head19,2048,1,1,1,2048,128,1,
MH_get_Q_head20,2048,1,1,1,8192,128,1,
MH_get_K_head20,2048,1,1,1,8192,128,1,
MH_get_V_head20,2048,1,1,1,8192,128,1,
MH_QxKT_head20,2048,1,1,1,128,2048,1,
MH_QxKTxV_head20,2048,1,1,1,2048,128,1,
MH_get_Q_head21,2048,1,1,1,8192,128,1,
MH_get_K_head21,2048,1,1,1,8192,128,1,
MH_get_V_head21,2048,1,1,1,8192,128,1,
MH_QxKT_head21,2048,1,1,1,128,2048,1,
MH_QxKTxV_head21,2048,1,1,1,2048,128,1,
MH_get_Q_head22,2048,1,1,1,8192,128,1,
MH_get_K_head22,2048,1,1,1,8192,128,1,
MH_get_V_head22,2048,1,1,1,8192,128,1,
MH_QxKT_head22,2048,1,1,1,128,2048,1,
MH_QxKTxV_head22,2048,1,1,1,2048,128,1,
MH_get_Q_head23,2048,1,1,1,8192,128,1,
MH_get_K_head23,2048,1,1,1,8192,128,1,
MH_get_V_head23,2048,1,1,1,8192,128,1,
MH_QxKT_head23,2048,1,1,1,128,2048,1,
MH_QxKTxV_head23,2048,1,1,1,2048,128,1,
MH_get_Q_head24,2048,1,1,1,8192,128,1,
MH_get_K_head24,2048,1,1,1,8192,128,1,
MH_get_V_head24,2048,1,1,1,8192,128,1,
MH_QxKT_head24,2048,1,1,1,128,2048,1,
MH_QxKTxV_head24,2048,1,1,1,2048,128,1,
MH_get_Q_head25,2048,1,1,1,8192,128,1,
MH_get_K_head25,2048,1,1,1,8192,128,1,
MH_get_V_head25,2048,1,1,1,8192,128,1,
MH_QxKT_head25,2048,1,1,1,128,2048,1,
MH_QxKTxV_head25,2048,1,1,1,2048,128,1,
MH_get_Q_head26,2048,1,1,1,8192,128,1,
MH_get_K_head26,2048,1,1,1,8192,128,1,
MH_get_V_head26,2048,1,1,1,8192,128,1,
MH_QxKT_head26,2048,1,1,1,128,2048,1,
MH_QxKTxV_head26,2048,1,1,1,2048,128,1,
MH_get_Q_head27,2048,1,1,1,8192,128,1,
MH_get_K_head27,2048,1,1,1,8192,128,1,
MH_get_V_head27,2048,1,1,1,8192,128,1,
MH_QxKT_head27,2048,1,1,1,128,2048,1,
MH_QxKTxV_head27,2048,1,1,1,2048,128,1,
MH_get_Q_head28,2048,1,1,1,8192,128,1,
MH_get_K_head28,2048,1,1,1,8192,128,1,
MH_get_V_head28,2048,1,1,1,8192,128,1,
MH_QxKT_head28,2048,1,1,1,128,2048,1,
MH_QxKTxV_head28,2048,1,1,1,2048,128,1,
MH_get_Q_head29,2048,1,1,1,8192,128,1,
MH_get_K_head29,2048,1,1,1,8192,128,1,
MH_get_V_head29,2048,1,1,1,8192,128,1,
MH_QxKT_head29,2048,1,1,1,128,2048,1,
MH_QxKTxV_head29,2048,1,1,1,2048,128,1,
MH_get_Q_head30,2048,1,1,1,8192,128,1,
MH_get_K_head30,2048,1,1,1,8192,128,1,
MH_get_V_head30,2048,1,1,1,8192,128,1,
MH_QxKT_head30,2048,1,1,1,128,2048,1,
MH_QxKTxV_head30,2048,1,1,1,2048,128,1,
MH_get_Q_head31,2048,1,1,1,8192,128,1,
MH_get_K_head31,2048,1,1,1,8192,128,1,
MH_get_V_head31,2048,1,1,1,8192,128,1,
MH_QxKT_head31,2048,1,1,1,128,2048,1,
MH_QxKTxV_head31,2048,1,1,1,2048,128,1,
MH_get_Q_head32,2048,1,1,1,8192,128,1,
MH_get_K_head32,2048,1,1,1,8192,128,1,
MH_get_V_head32,2048,1,1,1,8192,128,1,
MH_QxKT_head32,2048,1,1,1,128,2048,1,
MH_QxKTxV_head32,2048,1,1,1,2048,128,1,
MH_get_Q_head33,2048,1,1,1,8192,128,1,
MH_get_K_head33,2048,1,1,1,8192,128,1,
MH_get_V_head33,2048,1,1,1,8192,128,1,
MH_QxKT_head33,2048,1,1,1,128,2048,1,
MH_QxKTxV_head33,2048,1,1,1,2048,128,1,
MH_get_Q_head34,2048,1,1,1,8192,128,1,
MH_get_K_head34,2048,1,1,1,8192,128,1,
MH_get_V_head34,2048,1,1,1,8192,128,1,
MH_QxKT_head34,2048,1,1,1,128,2048,1,
MH_QxKTxV_head34,2048,1,1,1,2048,128,1,
MH_get_Q_head35,2048,1,1,1,8192,128,1,
MH_get_K_head35,2048,1,1,1,8192,128,1,
MH_get_V_head35,2048,1,1,1,8192,128,1,
MH_QxKT_head35,2048,1,1,1,128,2048,1,
MH_QxKTxV_head35,2048,1,1,1,2048,128,1,
MH_get_Q_head36,2048,1,1,1,8192,128,1,
MH_get_K_head36,2048,1,1,1,8192,128,1,
MH_get_V_head36,2048,1,1,1,8192,128,1,
MH_QxKT_head36,2048,1,1,1,128,2048,1,
MH_QxKTxV_head36,2048,1,1,1,2048,128,1,
MH_get_Q_head37,2048,1,1,1,8192,128,1,
MH_get_K_head37,2048,1,1,1,8192,128,1,
MH_get_V_head37,2048,1,1,1,8192,128,1,
MH_QxKT_head37,2048,1,1,1,128,2048,1,
MH_QxKTxV_head37,2048,1,1,1,2048,128,1,
MH_get_Q_head38,2048,1,1,1,8192,128,1,
MH_get_K_head38,2048,1,1,1,8192,128,1,
MH_get_V_head38,2048,1,1,1,8192,128,1,
MH_QxKT_head38,2048,1,1,1,128,2048,1,
MH_QxKTxV_head38,2048,1,1,1,2048,128,1,
MH_get_Q_head39,2048,1,1,1,8192,128,1,
MH_get_K_head39,2048,1,1,1,8192,128,1,
MH_get_V_head39,2048,1,1,1,8192,128,1,
MH_QxKT_head39,2048,1,1,1,128,2048,1,
MH_QxKTxV_head39,2048,1,1,1,2048,128,1,
MH_get_Q_head40,2048,1,1,1,8192,128,1,
MH_get_K_head40,2048,1,1,1,8192,128,1,
MH_get_V_head40,2048,1,1,1,8192,128,1,
MH_QxKT_head40,2048,1,1,1,128,2048,1,
MH_QxKTxV_head40,2048,1,1,1,2048,128,1,
MH_get_Q_head41,2048,1,1,1,8192,128,1,
MH_get_K_head41,2048,1,1,1,8192,128,1,
MH_get_V_head41,2048,1,1,1,8192,128,1,
MH_QxKT_head41,2048,1,1,1,128,2048,1,
MH_QxKTxV_head41,2048,1,1,1,2048,128,1,
MH_get_Q_head42,2048,1,1,1,8192,128,1,
MH_get_K_head42,2048,1,1,1,8192,128,1,
MH_get_V_head42,2048,1,1,1,8192,128,1,
MH_QxKT_head42,2048,1,1,1,128,2048,1,
MH_QxKTxV_head42,2048,1,1,1,2048,128,1,
MH_get_Q_head43,2048,1,1,1,8192,128,1,
MH_get_K_head43,2048,1,1,1,8192,128,1,
MH_get_V_head43,2048,1,1,1,8192,128,1,
MH_QxKT_head43,2048,1,1,1,128,2048,1,
MH_QxKTxV_head43,2048,1,1,1,2048,128,1,
MH_get_Q_head44,2048,1,1,1,8192,128,1,
MH_get_K_head44,2048,1,1,1,8192,128,1,
MH_get_V_head44,2048,1,1,1,8192,128,1,
MH_QxKT_head44,2048,1,1,1,128,2048,1,
MH_QxKTxV_head44,2048,1,1,1,2048,128,1,
MH_get_Q_head45,2048,1,1,1,8192,128,1,
MH_get_K_head45,2048,1,1,1,8192,128,1,
MH_get_V_head45,2048,1,1,1,8192,128,1,
MH_QxKT_head45,2048,1,1,1,128,2048,1,
MH_QxKTxV_head45,2048,1,1,1,2048,128,1,
MH_get_Q_head46,2048,1,1,1,8192,128,1,
MH_get_K_head46,2048,1,1,1,8192,128,1,
MH_get_V_head46,2048,1,1,1,8192,128,1,
MH_QxKT_head46,2048,1,1,1,128,2048,1,
MH_QxKTxV_head46,2048,1,1,1,2048,128,1,
MH_get_Q_head47,2048,1,1,1,8192,128,1,
MH_get_K_head47,2048,1,1,1,8192,128,1,
MH_get_V_head47,2048,1,1,1,8192,128,1,
MH_QxKT_head47,2048,1,1,1,128,2048,1,
MH_QxKTxV_head47,2048,1,1,1,2048,128,1,
MH_get_Q_head48,2048,1,1,1,8192,128,1,
MH_get_K_head48,2048,1,1,1,8192,128,1,
MH_get_V_head48,2048,1,1,1,8192,128,1,
MH_QxKT_head48,2048,1,1,1,128,2048,1,
MH_QxKTxV_head48,2048,1,1,1,2048,128,1,
MH_get_Q_head49,2048,1,1,1,8192,128,1,
MH_get_K_head49,2048,1,1,1,8192,128,1,
MH_get_V_head49,2048,1,1,1,8192,128,1,
MH_QxKT_head49,2048,1,1,1,128,2048,1,
MH_QxKTxV_head49,2048,1,1,1,2048,128,1,
MH_get_Q_head50,2048,1,1,1,8192,128,1,
MH_get_K_head50,2048,1,1,1,8192,128,1,
MH_get_V_head50,2048,1,1,1,8192,128,1,
MH_QxKT_head50,2048,1,1,1,128,2048,1,
MH_QxKTxV_head50,2048,1,1,1,2048,128,1,
MH_get_Q_head51,2048,1,1,1,8192,128,1,
MH_get_K_head51,2048,1,1,1,8192,128,1,
MH_get_V_head51,2048,1,1,1,8192,128,1,
MH_QxKT_head51,2048,1,1,1,128,2048,1,
MH_QxKTxV_head51,2048,1,1,1,2048,128,1,
MH_get_Q_head52,2048,1,1,1,8192,128,1,
MH_get_K_head52,2048,1,1,1,8192,128,1,
MH_get_V_head52,2048,1,1,1,8192,128,1,
MH_QxKT_head52,2048,1,1,1,128,2048,1,
MH_QxKTxV_head52,2048,1,1,1,2048,128,1,
MH_get_Q_head53,2048,1,1,1,8192,128,1,
MH_get_K_head53,2048,1,1,1,8192,128,1,
MH_get_V_head53,2048,1,1,1,8192,128,1,
MH_QxKT_head53,2048,1,1,1,128,2048,1,
MH_QxKTxV_head53,2048,1,1,1,2048,128,1,
MH_get_Q_head54,2048,1,1,1,8192,128,1,
MH_get_K_head54,2048,1,1,1,8192,128,1,
MH_get_V_head54,2048,1,1,1,8192,128,1,
MH_QxKT_head54,2048,1,1,1,128,2048,1,
MH_QxKTxV_head54,2048,1,1,1,2048,128,1,
MH_get_Q_head55,2048,1,1,1,8192,128,1,
MH_get_K_head55,2048,1,1,1,8192,128,1,
MH_get_V_head55,2048,1,1,1,8192,128,1,
MH_QxKT_head55,2048,1,1,1,128,2048,1,
MH_QxKTxV_head55,2048,1,1,1,2048,128,1,
MH_get_Q_head56,2048,1,1,1,8192,128,1,
MH_get_K_head56,2048,1,1,1,8192,128,1,
MH_get_V_head56,2048,1,1,1,8192,128,1,
MH_QxKT_head56,2048,1,1,1,128,2048,1,
MH_QxKTxV_head56,2048,1,1,1,2048,128,1,
MH_get_Q_head57,2048,1,1,1,8192,128,1,
MH_get_K_head57,2048,1,1,1,8192,128,1,
MH_get_V_head57,2048,1,1,1,8192,128,1,
MH_QxKT_head57,2048,1,1,1,128,2048,1,
MH_QxKTxV_head57,2048,1,1,1,2048,128,1,
MH_get_Q_head58,2048,1,1,1,8192,128,1,
MH_get_K_head58,2048,1,1,1,8192,128,1,
MH_get_V_head58,2048,1,1,1,8192,128,1,
MH_QxKT_head58,2048,1,1,1,128,2048,1,
MH_QxKTxV_head58,2048,1,1,1,2048,128,1,
MH_get_Q_head59,2048,1,1,1,8192,128,1,
MH_get_K_head59,2048,1,1,1,8192,128,1,
MH_get_V_head59,2048,1,1,1,8192,128,1,
MH_QxKT_head59,2048,1,1,1,128,2048,1,
MH_QxKTxV_head59,2048,1,1,1,2048,128,1,
MH_get_Q_head60,2048,1,1,1,8192,128,1,
MH_get_K_head60,2048,1,1,1,8192,128,1,
MH_get_V_head60,2048,1,1,1,8192,128,1,
MH_QxKT_head60,2048,1,1,1,128,2048,1,
MH_QxKTxV_head60,2048,1,1,1,2048,128,1,
MH_get_Q_head61,2048,1,1,1,8192,128,1,
MH_get_K_head61,2048,1,1,1,8192,128,1,
MH_get_V_head61,2048,1,1,1,8192,128,1,
MH_QxKT_head61,2048,1,1,1,128,2048,1,
MH_QxKTxV_head61,2048,1,1,1,2048,128,1,
MH_get_Q_head62,2048,1,1,1,8192,128,1,
MH_get_K_head62,2048,1,1,1,8192,128,1,
MH_get_V_head62,2048,1,1,1,8192,128,1,
MH_QxKT_head62,2048,1,1,1,128,2048,1,
MH_QxKTxV_head62,2048,1,1,1,2048,128,1,
MH_get_Q_head63,2048,1,1,1,8192,128,1,
MH_get_K_head63,2048,1,1,1,8192,128,1,
MH_get_V_head63,2048,1,1,1,8192,128,1,
MH_QxKT_head63,2048,1,1,1,128,2048,1,
MH_QxKTxV_head63,2048,1,1,1,2048,128,1,
MH_Concat_Linear,2048,1,1,1,8192,8192,1,
FF1,2048,1,1,1,8192,32768,1,
FF2,2048,1,1,1,32768,8192,1,
